srcnn_checkpoint.pth (torch, 83298 bytes, 6 tensors)

layer1.0.weight f4 [64, 3, 9, 9]
00000000: 4bd7 3c3d a8c8 cd3a ae31 79bc d6ea ad3c
00000010: ebd8 3cbd 3e1b 9ebc de67 383d 8540 25bd
00000020: 8b7f f33c d5bf 4abc 715c c83c 2dbc f7bc
00000030: bda2 3c3d 0227 913d 7f5d e83b 39cf 0cbd
00000040: 5156 0cbc cfab 14bd 6277 33bd b672 5cbd
00000050: b749 273d dca8 2b3c 74c4 013d 61bd 223d
00000060: 07e4 90bb 8da3 883d 1d7b 893d 41f3 3b3d
00000070: cf58 d5bb cf50 823d 84ed 923c 05de 713d
00000080: 665f 9a3c 8694 4d3d a44a cf3c 2c5a b7bb
00000090: 87aa ba3c 4a5f 10bd 86a1 b73c c7c1 833c
000000a0: 0ac7 8a3c aa11 0a3d b96c 6f3c 25b3 98ba
000000b0: 4b70 893d 2843 4c3b dd2b fbbc 0dc8 fb3c
000000c0: b420 bbbc 6a29 bd3d a3ff 403d 1bd1 5ebc
000000d0: f0f6 883d 4293 cfbc 6435 d1bc 7ad9 1dbd
000000e0: 41f4 a4bb cb95 2f3d 5506 3bbd 6128 efbc
000000f0: d45c d2bc c986 89bd cae8 68bd ca68 08bd
00000100: 5830 abbb 3271 caba 966e bd3c cd94 62bd
00000110: 2409 c7bc 7efb d33c 6f75 14bd 9e7c 15bd
00000120: 7757 23bd 21a5 163c 4f78 6ebd 48f6 39bd
00000130: 2c1b 3d3d 3a60 2fbd 63a6 f43c 5bcd 36bd
00000140: da96 97bb ff47 0d3d ab89 1e3d c12a 8cbd
00000150: 99e9 09bd 5761 2d3d 084d faba b1cf b8bc
00000160: 3754 8fbd 70f0 edbc 8f7d 44bd 9e1f e23a
00000170: 4fb2 023d ac3e 79bd feee 123d 43ec f9bc
00000180: 70ee 80bb e198 86bd d513 83bd fb25 d23a
00000190: 203e 303d 7bc0 923c 5314 31bc 683d 373d
000001a0: c7ef d4bc cbee a7bc eda0 383d 1a01 2bbd
000001b0: 4c49 78bd fa1e 523c 71e1 10bc 34bd 2d3d
000001c0: 80c1 173d 03b0 f43c 30dd 113c fcbc 653d
000001d0: 5622 50bd dd3d 59bc 28c4 00bc a2cc 1abd
000001e0: 3221 593d be36 843d 6963 4e3d 99f8 943d
000001f0: 87c0 f1bc 5afc 61bd 5f09 f23c 9500 75bd
00000200: 37c4 3abc 8d2f febc d257 ad3d ef27 243d
00000210: fadb 1d3d 0df6 283d e07e e03c 0085 b7bd
00000220: 9ae0 243d 1313 f73a 719b 66bc 42a0 223d
00000230: e95d df3c b05e 11bd 3538 73bd 99c7 973a
00000240: f047 9d3b 479f b1bd f9b2 37bd b3d7 0bbd
00000250: ec13 bd3c ab84 96bc 0180 1d3d 5978 133d
00000260: ddf5 df3b eacb 96bd c245 5dbb 9789 09bd
00000270: c9fd 47bd fa37 81bb a295 353d dd13 1abd
00000280: bc39 30bd e7cb e8bc bb6c 8abd 40b5 23bd
00000290: 5045 693c 14ac 063d c22a 4a3d 80cd 74bd
000002a0: ad4c 283d 778a 39bc 328f 2dbb f94c c2b9
000002b0: ce43 1d3d 27f2 0abd ec81 7e3b a169 493d
000002c0: 6a4d 55bd 509e 62bd 6f10 12bb 9b1d f0bc
000002d0: 8bf0 56bd 9bfd 5fbd 0cb7 0c3b 027c 353d
000002e0: 2cf1 463d b24f 2b3d 594c b73c b169 1b3b
000002f0: d61e 87bd 54f2 47bc 4e38 99bd 76a9 e4bc
00000300: 1c82 46bb 320e c4bc 1dc3 2e3d 17a3 59bd
00000310: 1349 013c 6e6c 393d 0a21 253d 5bac 413d
00000320: 9ccd 30bd d3fb f5bc 7e02 8abd 748e 74bd
00000330: 5b6c 1abd 40e9 23bd 296a 3fbc 46df 1bbd
00000340: da2d 6dbd 172f 243c 0b95 0cbd 82bb 933c
00000350: 41bb 973d d11f c2bc 6504 123c b3ab 673b
00000360: 5988 8a3c 9bef 963c 0bea 90bd 42dd 62bd
00000370: fe92 78bd 54a7 54bd f56a 4bbd 6062 90bd
00000380: 64eb 71bd 1292 323d 8737 3b3d bbe4 80ba
00000390: 35d5 48bd 091f 46bd a52b 483d 6477 ee3c
000003a0: 1957 5a3c 3125 253d 111f 65bd 26d4 063d
000003b0: c999 17bd a1df f63c 5232 a13a c87d cfba
000003c0: 754e 0cbd 3a5b d2ba 6e0e 4c3d d40b 263d
000003d0: b402 59bd a57c 42bd 0a23 64bd f954 7e3d
000003e0: ce93 6ebd 6e52 403b 60ec 14bd 2d96 edbc
000003f0: 6431 57ba b622 51bc 0d6a f9bc d51b 80bd
0.046103757 0.0015700059 -0.0152095985 0.021230143 -0.046105307 -0.0193001 0.04502093 -0.040344734
0.029723903 -0.012374838 0.024458142 -0.030241096 0.046053637 0.07087518 0.0070912237 -0.03437731
-0.008565501 -0.036296662 -0.043815024 -0.053820334 0.040841784 0.010477271 0.031681493 0.039731387
-0.004421714 0.0667182 0.06712935 0.045886282 -0.006510831 0.06363069 0.017935522 0.059049625
0.018844318 0.05019047 0.025304146 -0.005595466 0.022786392 -0.035247125 0.022415888 0.016083611
0.016940612 0.033708252 0.014613324 -0.0011650069 0.06710871 0.0031167958 -0.030660564 0.03073504
-0.022842743 0.09236415 0.047118794 -0.013599659 0.066877246 -0.025338773 -0.025538154 -0.03853748
-0.005034 0.042867463 -0.045660336 -0.029194059 -0.02567903 -0.06715161 -0.05686263 -0.03330306
-0.005224269 -0.0015445112 0.02312402 -0.05531769 -0.02429635 0.025876757 -0.036244806 -0.036495797
-0.039878335 0.009194643 -0.058220204 -0.045400888 0.04616849 -0.04281638 0.029864496 -0.044629436
-0.004626137 0.03449249 0.03870551 -0.06844092 -0.03367004 0.04232916 -0.0019096443 -0.022559972
-0.069984846 -0.029045314 -0.047971305 0.0017251854 0.03190833 -0.060850784 0.035872452 -0.030508166
-0.003934674 -0.06572128 -0.06400267 0.0016033048 0.043027997 0.017914047 -0.010808068 0.044736296
-0.025993241 -0.020499608 0.045075346 -0.041749097 -0.060616776 0.012824768 -0.008842812 0.042416766
0.03704977 0.029869085 0.008902833 0.056088433 -0.050813995 -0.013259378 -0.007859267 -0.03779281
0.053010173 0.06455754 0.050387774 0.07273979 -0.02951075 -0.0551723 0.029545484 -0.05981501
-0.01139932 -0.031028533 0.08464016 0.040077146 0.038539864 0.041250277 0.027404249 -0.089609146
0.04025326 0.0018850289 -0.014075146 0.039703615 0.02726646 -0.03549069 -0.059379775 0.001157987
0.0047998354 -0.08672958 -0.044848416 -0.034141254 0.023080789 -0.018373808 0.038452152 0.036003444
0.006834729 -0.07363112 -0.0033763503 -0.03357848 -0.048826013 -0.0039434405 0.044332154 -0.0376166
-0.04302381 -0.02841754 -0.0675902 -0.039967775 0.014237717 0.03287895 0.049357183 -0.059766293
0.04108875 -0.0113245165 -0.0026483056 -0.00037059913 0.03839474 -0.03392234 0.0038834764 0.049173
-0.05207578 -0.05532676 -0.0022287627 -0.029310992 -0.052475493 -0.054685216 0.002147141 0.044307716
0.048569843 0.04182405 0.022375273 0.002371412 -0.06597678 -0.012203772 -0.074814424 -0.027912837
-0.0030289954 -0.02393255 0.042666543 -0.05313405 0.007890957 0.045269422 0.04031471 0.04728351
-0.043164834 -0.030027306 -0.067387566 -0.059706166 -0.037700992 -0.040017366 -0.011683025 -0.038054727
-0.057905056 0.010020993 -0.034321826 0.018033747 0.07408763 -0.023696812 0.008912181 0.0035350143
0.016910719 0.0184248 -0.0707589 -0.05538679 -0.060687058 -0.05191739 -0.04966255 -0.070500135
-0.059062377 0.043596335 0.045707252 -0.0009833792 -0.049031455 -0.04836944 0.048869748 0.029109664
0.01332643 0.04031867 -0.05593783 0.032917164 -0.037011895 0.030135931 0.0012298322 -0.0015830332
-0.03425451 -0.0016048916 0.04981845 0.040538624 -0.052981094 -0.04748215 -0.05569748 0.062092755
-0.058246426 0.0029346007 -0.036358237 -0.029002273 -0.0008208959 -0.012764623 -0.030446077 -0.062553085

layer1.0.bias f4 [64]
00000000: a839 0dbd 5aa9 f5bc f9e9 2dbc 662a bb3c
00000010: 8826 e9bc b394 80bc 28e6 173d 9a41 063d
00000020: 3c95 db3c 0876 66bd 3317 7a3d a4bf 5b3b
00000030: 2dc2 dbbc ac42 aabc a61d 51bd 129a 223d
00000040: 52fe 67bd 4ec9 9ebb 9d69 5dbd a750 b33c
00000050: 4fc3 323d c634 7cbc 58a1 493d 2b82 64bd
00000060: 2461 59bd bcc9 9f3b 86ff 043d 031b 19bc
00000070: e31f 323d 631a ecbc 0f0b 07bd 0f2a c6bc
00000080: c586 8d3c 1235 853c be13 803d 1e9c febb
00000090: 65e1 63bc 1493 74bc 284f 723c b8c4 903d
000000a0: 462d b8bc d3d1 7fbc 4772 74bb 3ead 8c3b
000000b0: c190 703d d2f7 703d 24c6 7e3c 5a91 36bc
000000c0: 26db e13c 76e5 77bc 8d34 4dbd c98a 1fbd
000000d0: 2489 93ba 76ca 5a3d 0d07 4dbd 4fa8 c33d
000000e0: ff42 e73c 6aaa 62bc 8a96 873d 2cd6 fb3c
000000f0: 4e21 f8bc da20 293d e1af 46bd 9c2a 8ebd
-0.034478813 -0.02998798 -0.010614865 0.022847366 -0.028460756 -0.015695905 0.03708473 0.032777406
0.026804559 -0.056264907 0.06105728 0.0033530975 -0.026825989 -0.020783745 -0.051053666 0.039697714
-0.056639023 -0.0048457747 -0.0540558 0.021889044 0.043643292 -0.015393442 0.049226135 -0.0557882
-0.053071156 0.0048763435 0.03247025 -0.009344819 0.04348744 -0.028821176 -0.03296953 -0.024189977
0.017276177 0.016260657 0.062537655 -0.0077700755 -0.013908719 -0.014927644 0.01478938 0.07068771
-0.022482526 -0.015613991 -0.003729956 0.004293113 0.058731798 0.05883009 0.01555017 -0.011143053
0.027570318 -0.015130391 -0.050098944 -0.038950715 -0.0011256081 0.053415738 -0.050055552 0.09553587
0.028230188 -0.013834575 0.0662051 0.030741774 -0.030289318 0.041291095 -0.048507575 -0.06941721

layer2.0.weight f4 [32, 64, 1, 1]
00000000: 28fa d53d e5e1 113e a536 d43d 8914 e9bd
00000010: 8ec5 613d bb56 babb 2642 6fbd 349d 633d
00000020: aff1 35bd febd 0a3e aa9f 1d3c 6430 db3c
00000030: 1ffe d83c 98d3 e03d 1891 4ebd 7361 b23d
00000040: 9cf9 40bd 3301 a83d a697 c83d 6808 f33d
00000050: a621 e83c f1da 803d 1fce 61b9 19c7 d3bd
00000060: c4a8 fabd 4436 bbbd 64a4 ef3d e9f6 74bd
00000070: ce93 e83d 7b70 ecbd adb3 0a3c bf74 cabd
00000080: 61cc f13c dd96 263c 8c3a 063e a0db 96bd
00000090: e382 81bd c3f8 c8bd a4d5 8dbd cd25 f3bc
000000a0: 28ef b8bd 2c29 89bd 1fbf af3d 5ae5 63bd
000000b0: f492 3cbc 9daf f4bd 8655 e03d 760c c0bc
000000c0: 705a 563d ac37 8f3d 2802 5d3d e5b3 b0bd
000000d0: 4008 013d c93d 873d 73ea 4a37 e546 fe3b
000000e0: 8a8b a63d 0e5e c6bd b545 df3b 4950 443d
000000f0: ba47 a33c 2270 803d 1b43 9fbd 824b b53d
00000100: 15ec e1bd 69f0 ef3c 9cc5 7e3d 5120 bcbd
00000110: 916e a73d 4aa1 20bd 99c4 eebd 12d0 94b8
00000120: 1ca0 aa3d 2107 d03c 996a d0bd 7460 4ebd
00000130: d118 cb3d 03ba fcbd 931f cbbd f334 043e
00000140: a4c4 1dbc 225b 12bc b3c8 26bd 1c2e f1bd
00000150: c7a4 4e3e 16fe 323d bd65 133e b2e8 033e
00000160: 79e6 68bd 0d66 f33c f798 adbd c309 1a3c
00000170: 2204 fa3d c321 49bd cf71 0dbc 4fe6 813e
00000180: 4c57 afbd d710 bbbd a337 87bd 8cd7 3abd
00000190: 1b3c 003e 078b 8fbc 8d99 ce3c 180e c13d
000001a0: cff4 d7bd cc16 b1bd 22de 2e3d 8d93 11be
000001b0: 89f6 c8bd 5271 0f3e f5a0 a4bd ba12 c93d
000001c0: c4af 5bbd 2232 733e caee 6abc ba4b fb3d
000001d0: 5242 a0bd bd24 113d 2b54 cd3d ecac 25bc
000001e0: e951 bd3a a60b 35bd 9267 43bd 89bf 9d3d
000001f0: 8218 18bd 92cb 85bd 415a b2bd 6799 3fbd
00000200: e377 5ebc e339 553d e11a b03d 080d 6b3d
00000210: fd96 903d 7d97 a2bd 9143 8fbd e503 10bd
00000220: 4c58 95bd 1915 ad3d 6d50 6a3d 0cf3 463d
00000230: a244 203d 819c 433c 9ed8 a33d c9f3 693c
00000240: efc2 c5bd 3538 5e3d 173b 9e3d 95c1 e83d
00000250: 6a6e 15bc 26c1 a8bc f6e6 63bd 744b d23d
00000260: b687 9ebc a5ec 3d3d 86e6 c33c eb18 833d
00000270: 01c7 35bd 88b2 8bba fe90 e43d 9dc4 b9bd
00000280: b210 753a 6beb 93bd db9b a9bd 8dac 953d
00000290: c09c 183d 1164 583d d4f9 97bd 028a 7abd
000002a0: 3dbd d9bd 793e 6b3d 4f2d a8bd 7c60 eebd
000002b0: e940 94bc 3733 343d 2169 de3d 9347 debc
000002c0: 5ee1 b5bd c8ed 0bbb 986c 4f3d a981 eebd
000002d0: 8abb 363d e506 913d 0eb7 ebbc 04f8 b0bc
000002e0: c52d af3c 97f9 c73d 832f 283d 4a11 8d3c
000002f0: 6ebe 873d ddc3 85bb 7779 b63d 7a6f 97bd
00000300: d848 19bd bcbf e73d 0574 67bc 243a 0b3e
00000310: fdbd e7bd 33bc 98bc b613 bdbd 18fd 1dbd
00000320: 4ae4 e83d 7923 ddbc f220 87bd 8cf8 de3d
00000330: 9ffb 1fbd d645 12bd 9814 e8bd 6722 c33d
00000340: a73d f23c 028e 35be 7c55 803d 011b be3d
00000350: 5995 463d eedd d0bc 8a2a b43a b151 54bc
00000360: d11a 693d 9363 d5bd bfe9 f0bd 7304 7c3d
00000370: 3395 d03d 40d2 6e3c 60ea 52bd c7ca da3d
00000380: 4a97 cabd 398e 243d f76a 263e 2527 59bd
00000390: e5f0 853d 35b1 97bc cdbd 913c d6ca c7bd
000003a0: e9aa db3d 742c 1cbd b954 02bc 3ace 8b3c
000003b0: c44c 223c 94ca 83bc 261f adbd 1a29 a23b
000003c0: 6133 3abd 6142 08bd 0034 cab9 171a b63d
000003d0: dd41 d1bd 74f4 d4bd 995b e83d 3ea4 b6bd
000003e0: 3122 dd3d 7c65 47bd a964 e83c 9d83 723d
000003f0: 2fac 01bc 7356 a4bd b942 443c 7478 d33d
0.10448104 0.14246328 0.10361985 -0.1138087 0.055120043 -0.0056866086 -0.058412693 0.055569842
-0.04441994 0.13549039 0.009620586 0.026756473 0.026488362 0.10977858 -0.05043134 0.08709993
-0.047113046 0.08203354 0.0979455 0.11866838 0.028336357 0.0629176 -0.00021534458 -0.10340709
-0.12239221 -0.0914121 0.11701277 -0.059805784 0.113563165 -0.115448914 0.00846569 -0.09885549
0.0295164 0.010167805 0.13108271 -0.07366109 -0.06323793 -0.098130725 -0.06925514 -0.02968111
-0.090299904 -0.06697306 0.08581375 -0.05563865 -0.011509646 -0.11947558 0.10953812 -0.023443442
0.05233234 0.069930404 0.053957134 -0.08628062 0.03150201 0.066035815 1.2094725e-05 0.007759916
0.08132084 -0.09685908 0.0068137296 0.04792813 0.019931663 0.06271388 -0.07776471 0.088522926
-0.11031357 0.029289441 0.062200174 -0.09185851 0.08175386 -0.039216317 -0.11658592 -7.095946e-05
0.0833132 0.025394024 -0.10176582 -0.050384954 0.09916843 -0.123401664 -0.09918132 0.12910824
-0.009629402 -0.008932861 -0.040718745 -0.11776373 0.20180045 0.043699346 0.14394279 0.12881735
-0.05686042 0.029711748 -0.08476441 0.009401741 0.122078195 -0.049104463 -0.008633091 0.25371024
-0.085615724 -0.09134071 -0.06602409 -0.045615718 0.12522928 -0.017522348 0.025219703 0.09426516
-0.105447404 -0.08646926 0.04269231 -0.14216442 -0.09812648 0.14008072 -0.080385126 0.09818025
-0.05363442 0.23749593 -0.014339158 0.12270303 -0.078251496 0.035435427 0.100258194 -0.010112029
0.0014443967 -0.044200562 -0.047706194 0.07702548 -0.037132747 -0.065329686 -0.08708621 -0.046777155
-0.013578388 0.05205716 0.08598877 0.057385474 0.07060049 -0.0793905 -0.06995309 -0.035159964
-0.07292232 0.0845129 0.057205606 0.04857163 0.039127953 0.011939169 0.08000301 0.014279314
-0.09656321 0.054252822 0.07726114 0.11365048 -0.009120563 -0.020599913 -0.055640183 0.10268298
-0.019351821 0.04636826 0.023913633 0.06401237 -0.044379238 -0.0010658065 0.111604676 -0.09070704
0.0009348496 -0.07222637 -0.0828168 0.07308302 0.037258863 0.052829806 -0.07420698 -0.06116677
-0.106317975 0.057432625 -0.08211767 -0.11639497 -0.018097358 0.043994155 0.108598955 -0.027133739
-0.08880876 -0.0021351445 0.050640672 -0.116458245 0.044612445 0.07081393 -0.02877381 -0.021602638
0.02138413 0.09764402 0.041060936 0.017220158 0.066281185 -0.0040821866 0.08909886 -0.07394309
-0.037422985 0.11315867 -0.014126782 0.13596398 -0.11315534 -0.018644428 -0.09232275 -0.038571447
0.11371668 -0.026994454 -0.06598081 0.1088725 -0.039058324 -0.035711132 -0.11332053 0.09528046
0.029570414 -0.17729953 0.06266305 0.09282494 0.048482273 -0.02549645 0.0013745588 -0.01295893
0.05691034 -0.10419383 -0.117633335 0.06152768 0.101847075 0.014576495 -0.05149305 0.10683208
-0.09892137 0.040174697 0.16251741 -0.053015847 0.065400876 -0.018517116 0.0177907 -0.09755485
0.10725958 -0.03812833 -0.00795477 0.01706611 0.009905998 -0.016087808 -0.08453207 0.0049487473
-0.045459155 -0.03326643 -0.00038567185 0.08891695 -0.102176405 -0.10398188 0.11345596 -0.089180455
0.10797537 -0.048680767 0.028368311 0.059207547 -0.007914587 -0.080243014 0.011978799 0.10325709

layer2.0.bias f4 [32]
00000000: 335e 93bc cb2d cb3d f017 b5bd f565 313b
00000010: fa0a 24bd c5e4 0bbd 423a 893d fdfe ecbc
00000020: 1c8d 5e3d 2275 dabc 5d17 92bd f2cf fd3b
00000030: d249 393c 08f0 76bc 9350 a2bd ce74 7f3d
00000040: 38d9 75bd 2923 b33d 678f 6cbd 0166 9a3c
00000050: 17b7 eabc 1b43 eb3d 89a6 c83d 76d2 c4bd
00000060: 30da 913d 93f1 a43d 3dbb 87bc b8cc 713d
00000070: e209 be3d ff0e e23c 3d19 f53d 10f3 0abd
-0.017989254 0.09920844 -0.08842456 0.0027068828 -0.04004953 -0.03415372 0.06700565 -0.028930182
0.05433379 -0.026667181 -0.071333624 0.0077457363 0.011309104 -0.015071876 -0.079255246 0.062367253
-0.06002161 0.08746941 -0.057753947 0.018847467 -0.028651757 0.11487409 0.09797389 -0.09610455
0.07121694 0.08053889 -0.016568774 0.059033126 0.09279229 0.027595041 0.119677044 -0.03392321

layer3.0.weight f4 [3, 32, 5, 5]
00000000: f3e1 573d 9e20 0d3d 0e40 203d 0c2a 90bc
00000010: f340 6ebc 4740 02bd c14c c5bc 7bdc f83c
00000020: 77c1 1a3d 8dd7 a4bc cdaf b53c 6839 27bb
00000030: ab04 983d e4b3 923c f514 8ebc 1a3f a03c
00000040: f375 8dbc 60ba 283d fe04 5f3d 6a2c 9fbc
00000050: 0f41 593c 4e85 403c afc1 9239 6121 813c
00000060: 5cb6 953b c46b 50bc 30df 0bbd f0aa a6bb
00000070: c398 33bd 7056 cc3b 10f3 cdbc c0e4 86bd
00000080: 8262 72bd 5259 7dbd 59df 99bc 96d5 54bb
00000090: b829 8ebc 0a68 f1b9 d03b 01bd 3fed 6dbd
000000a0: 1ef3 1abc 2540 37bb 5dfa 50bd b127 a4bc
000000b0: c4ed 80bd 2d5a 83bc 19b3 bbbc 1035 4ebc
000000c0: 20d0 0bbd 716c 93bb 0362 30bc b206 d5bc
000000d0: 08be 8cbc d3ea 0e3d 73ce 153d 6290 65bc
000000e0: 3d62 5abb 6ba9 133d 9f6d ed3c 1992 683c
000000f0: 7c1f 36bc 06ec b4bb f509 153d 97d6 713b
00000100: aa4c 1d3d dfcc 9b3c 9eb1 133c 7515 bebc
00000110: 5362 683c 0181 463c 8204 b83c fb3c e93c
00000120: f948 19bc 4ae5 c03c a1fb 913c 75fa 59ba
00000130: 8bec 24bc 3061 203d 3daf 193d 49f8 863a
00000140: 257c 25bd 304b b3bc d918 e23b 7850 573d
00000150: 56f4 7c3c d074 ab3c ecff d0bc 4944 063d
00000160: eecf c1bc 24dd c1bb 833e 83bb 7fa2 01bd
00000170: 09d7 5bbc d143 d4bc 46d5 a83a cc75 03bd
00000180: 96b6 e63c fb41 b1bb edd8 40bc 290c 33bc
00000190: d743 293c 3e32 fcbc b721 babc fea4 063d
000001a0: e3b3 01bd 51ce 463b beb5 eabc 53b1 813b
000001b0: e716 123c dde9 d53b dc70 743c 835d acbc
000001c0: 3123 e2bc 00a0 193d e568 623c 9b1b f5bc
000001d0: 670d 0dbc d269 ecbc 50ec 93bc 23fa 9f3b
000001e0: 7a1c dabc 4122 03bd 6945 d13c 0bd6 0abb
000001f0: 5a21 893c 132c 733c 5863 9c3b 6d69 463c
00000200: f1e4 233b c5d8 123d 4cf8 f33c 5133 723b
00000210: e638 af3d 5502 f83c 8b59 6a3c ec2f 5f3d
00000220: 45f6 893d 410f c23d 7dcf 9b3c e185 963c
00000230: b462 10bc b3f5 303d f029 153b 53d8 bf3b
00000240: eb24 c33c c9ca f9bc 7fcf 0f3c 3b8d 233d
00000250: 0e66 8d3c 07ae 0b3c b314 d7bb 4f8a 713c
00000260: 1f71 8d3d 4afe cebc 9868 58bb e45e 6cbd
00000270: b235 133d a5bf 1f3c e326 d53b a468 03bb
00000280: 13cc 0abd dd03 163d e0bd 863d 7e84 223d
00000290: a7be 4f3d 3a28 3fbd 3cb8 c0bc 6383 6c3d
000002a0: 254d ddbc 5dc0 963c ebb2 483c e626 3d3c
000002b0: da91 b03c 953f c6bc aaa9 0fbd 8818 c83c
000002c0: 1784 1f3c c464 433d 7b68 413c f6a6 8c3a
000002d0: 5bb0 4e3c 148f ce3a 6ee4 86bc 8c42 e8bc
000002e0: b9e5 a7bc 8bc6 c4bc 3e57 693c c0e5 a4bc
000002f0: 758a a63c e7cc b9bc 8a10 87bc 3c9e 363c
00000300: a400 72bc 8489 c7bc 1756 c5bc 43df e8bb
00000310: 90f8 fe3c c28d 0e3d 23ed eb3c 7691 9f3c
00000320: 3be8 71bc 7b89 87bc e637 c43c 0a85 22bd
00000330: 45e9 94bc 6891 66bd 065d feba b61e 90bc
00000340: 986e 3fbd d643 bc3b e0ba 98bd 8bfa bfbc
00000350: be6f 453d ffc7 e93c e153 013d 41f9 27bd
00000360: 464c 8cbd 1e47 903a d644 0dbd 8e0d 013d
00000370: 2702 6dbd 85af 5abd 6a99 11bd 7472 6bbd
00000380: eeef 01bd 29c8 c0bc 6e78 c4bc 4cb3 d33c
00000390: 07b1 4cba 452f 9a3c 2abf f53c dbc6 ee3c
000003a0: 36fb 3f3d 1c3f 213d a5b6 41bc 5c63 2d3d
000003b0: f426 383d bbb6 0c3d 8685 fdbc 80ec 71bc
000003c0: 0cb2 47bc 6aa1 b0bb c773 0c3d 2101 20bd
000003d0: a92b 0dbd dede 46ba 3f5d 3e3c b09e e3ba
000003e0: 742c a2ba 73c6 9cbb 7e32 0dbd 9b6d f9bc
000003f0: e2d3 0a3d e39b 223d 7549 f63c e96a f0bc
0.052705716 0.034454934 0.039123587 -0.017598175 -0.014541852 -0.03179958 -0.02408445 0.03037857
0.03778216 -0.020122314 0.022178555 -0.0025516395 0.07422765 0.017908044 -0.017343977 0.01956134
-0.017268157 0.041193366 0.05444812 -0.019430358 0.01326014 0.011750532 0.00027991596 0.015762987
0.004568858 -0.012721006 -0.034148395 -0.0050862953 -0.043846857 0.00623589 -0.025140315 -0.06586599
-0.059175976 -0.06185276 -0.018783258 -0.003247594 -0.017353877 -0.00046044617 -0.031551182 -0.058087584
-0.009457378 -0.0027961817 -0.051020015 -0.020038458 -0.0629535 -0.01603421 -0.022912549 -0.012585893
-0.03413403 -0.004499011 -0.010765555 -0.02600417 -0.017180458 0.034891915 0.03657384 -0.014011474
-0.0033322715 0.03605024 0.028982935 0.014194989 -0.011115905 -0.0055213002 0.03638645 0.0036901587
0.03840319 0.019018589 0.009014515 -0.02320359 0.014183599 0.012115718 0.022463087 0.02847146
-0.009355777 0.023546834 0.017820181 -0.0008315214 -0.010066162 0.039155185 0.037520636 0.0010297383
-0.040401597 -0.021886438 0.0068999347 0.052566975 0.015439114 0.020929724 -0.025512658 0.032779966
-0.023658719 -0.0059162546 -0.0040052547 -0.03164911 -0.013417968 -0.025911244 0.0012880943 -0.03209476
0.028163236 -0.005409477 -0.011770469 -0.010928192 0.010331116 -0.030785676 -0.022721155 0.032872193
-0.031665694 0.0030335377 -0.028651115 0.0039579063 0.008916593 0.006528123 0.014919486 -0.021040684
-0.027604671 0.037506104 0.013818954 -0.02992039 -0.008609152 -0.028859053 -0.018057019 0.0048821135
-0.026624907 -0.03201509 0.025545793 -0.0021184708 0.016739536 0.014842051 0.004772585 0.012110096
0.0025008286 0.03585126 0.029781483 0.0036956856 0.085557744 0.03027455 0.014303575 0.05448906
0.06736425 0.09475566 0.019019837 0.018374385 -0.008812595 0.043203067 0.0022760592 0.0058546453
0.023821315 -0.030492203 0.008777498 0.03992961 0.017260578 0.008525378 -0.006563747 0.014742448
0.06906342 -0.025267739 -0.0033021327 -0.057707682 0.03593988 0.009750281 0.00650488 -0.0020051384
-0.033886027 0.036624778 0.065791845 0.039677136 0.05071893 -0.046669222 -0.02352535 0.057742488
-0.027014324 0.018402273 0.012249689 0.011544919 0.021553922 -0.02420024 -0.035073914 0.02442576
0.0097360825 0.04770352 0.011804695 0.001073091 0.012615289 0.0015759193 -0.016466346 -0.028352045
-0.020495282 -0.024020454 0.014241992 -0.020129085 0.020329693 -0.022680713 -0.016487379 0.011146124
-0.014770661 -0.024357565 -0.024088902 -0.007106693 0.031124383 0.03480316 0.028799599 0.01947854
-0.014764841 -0.016545048 0.023952436 -0.039677657 -0.018177638 -0.056291014 -0.0019406385 -0.01759277
-0.04673633 0.0057453914 -0.074575186 -0.023434898 0.04820227 0.028537748 0.031574134 -0.04100919
-0.068504855 0.0011007523 -0.034489475 0.031507067 -0.05786338 -0.053390045 -0.035546698 -0.057482198
-0.031722955 -0.023532944 -0.023983207 0.025842331 -0.00078083616 0.018821368 0.02999838 0.029147556
0.046870433 0.039366826 -0.011823331 0.042331085 0.044959024 0.034353953 -0.030947458 -0.014765859
-0.012188446 -0.005390336 0.0342901 -0.039063577 -0.034465466 -0.00075863104 0.011618911 -0.0017366018
-0.0012372867 -0.004784399 -0.03447198 -0.030447772 0.033893473 0.039699446 0.030064324 -0.029347854

layer3.0.bias f4 [3]
00000000: 39a1 3b3d 7e30 38bc 2b3d d93b
0.04580805 -0.01124203 0.0066296062
